…
filters              : 128       
dropout              : 0.2       
prot_vec             : Convolution
prot_len             : 2500      
drug_vec             : morgan_fp_r2
drug_len             : 2048      
=====================================================
Model: "model_1"
__________________________________________________________________________________________________
Layer (type)                    Output Shape         Param #     Connected to                     
==================================================================================================
input_2 (InputLayer)            (None, 2500)         0                                            
__________________________________________________________________________________________________
embedding_1 (Embedding)         (None, 2500, 20)     520         input_2[0][0]                    
__________________________________________________________________________________________________
spatial_dropout1d_1 (SpatialDro (None, 2500, 20)     0           embedding_1[0][0]                
__________________________________________________________________________________________________
input_1 (InputLayer)            (None, 2048)         0                                            
__________________________________________________________________________________________________
conv1d_1 (Conv1D)               (None, 2500, 128)    25728       spatial_dropout1d_1[0][0]        
__________________________________________________________________________________________________
conv1d_2 (Conv1D)               (None, 2500, 128)    38528       spatial_dropout1d_1[0][0]        
__________________________________________________________________________________________________
conv1d_3 (Conv1D)               (None, 2500, 128)    51328       spatial_dropout1d_1[0][0]        
__________________________________________________________________________________________________
conv1d_4 (Conv1D)               (None, 2500, 128)    64128       spatial_dropout1d_1[0][0]        
__________________________________________________________________________________________________
conv1d_5 (Conv1D)               (None, 2500, 128)    76928       spatial_dropout1d_1[0][0]        
__________________________________________________________________________________________________
dense_1 (Dense)                 (None, 512)          1049088     input_1[0][0]                    
__________________________________________________________________________________________________
batch_normalization_3 (BatchNor (None, 2500, 128)    512         conv1d_1[0][0]                   
__________________________________________________________________________________________________
batch_normalization_4 (BatchNor (None, 2500, 128)    512         conv1d_2[0][0]                   
__________________________________________________________________________________________________
batch_normalization_5 (BatchNor (None, 2500, 128)    512         conv1d_3[0][0]                   
__________________________________________________________________________________________________
batch_normalization_6 (BatchNor (None, 2500, 128)    512         conv1d_4[0][0]                   
__________________________________________________________________________________________________
batch_normalization_7 (BatchNor (None, 2500, 128)    512         conv1d_5[0][0]                   
__________________________________________________________________________________________________
batch_normalization_1 (BatchNor (None, 512)          2048        dense_1[0][0]                    
__________________________________________________________________________________________________
activation_3 (Activation)       (None, 2500, 128)    0           batch_normalization_3[0][0]      
__________________________________________________________________________________________________
activation_4 (Activation)       (None, 2500, 128)    0           batch_normalization_4[0][0]      
__________________________________________________________________________________________________
activation_5 (Activation)       (None, 2500, 128)    0           batch_normalization_5[0][0]      
__________________________________________________________________________________________________
activation_6 (Activation)       (None, 2500, 128)    0           batch_normalization_6[0][0]      
__________________________________________________________________________________________________
activation_7 (Activation)       (None, 2500, 128)    0           batch_normalization_7[0][0]      
__________________________________________________________________________________________________
activation_1 (Activation)       (None, 512)          0           batch_normalization_1[0][0]      
__________________________________________________________________________________________________
global_max_pooling1d_1 (GlobalM (None, 128)          0           activation_3[0][0]               
__________________________________________________________________________________________________
global_max_pooling1d_2 (GlobalM (None, 128)          0           activation_4[0][0]               
__________________________________________________________________________________________________
global_max_pooling1d_3 (GlobalM (None, 128)          0           activation_5[0][0]               
__________________________________________________________________________________________________
global_max_pooling1d_4 (GlobalM (None, 128)          0           activation_6[0][0]               
__________________________________________________________________________________________________
global_max_pooling1d_5 (GlobalM (None, 128)          0           activation_7[0][0]               
__________________________________________________________________________________________________
dropout_1 (Dropout)             (None, 512)          0           activation_1[0][0]               
__________________________________________________________________________________________________
concatenate_1 (Concatenate)     (None, 640)          0           global_max_pooling1d_1[0][0]     
                                                                 global_max_pooling1d_2[0][0]     
                                                                 global_max_pooling1d_3[0][0]     
                                                                 global_max_pooling1d_4[0][0]     
                                                                 global_max_pooling1d_5[0][0]     
__________________________________________________________________________________________________
dense_2 (Dense)                 (None, 128)          65664       dropout_1[0][0]                  
__________________________________________________________________________________________________
dense_3 (Dense)                 (None, 128)          82048       concatenate_1[0][0]              
__________________________________________________________________________________________________
batch_normalization_2 (BatchNor (None, 128)          512         dense_2[0][0]                    
__________________________________________________________________________________________________
batch_normalization_8 (BatchNor (None, 128)          512         dense_3[0][0]                    
__________________________________________________________________________________________________
activation_2 (Activation)       (None, 128)          0           batch_normalization_2[0][0]      
__________________________________________________________________________________________________
activation_8 (Activation)       (None, 128)          0           batch_normalization_8[0][0]      
__________________________________________________________________________________________________
dropout_2 (Dropout)             (None, 128)          0           activation_2[0][0]               
__________________________________________________________________________________________________
dropout_3 (Dropout)             (None, 128)          0           activation_8[0][0]               
__________________________________________________________________________________________________
concatenate_2 (Concatenate)     (None, 256)          0           dropout_2[0][0]                  
                                                                 dropout_3[0][0]                  
__________________________________________________________________________________________________
dense_4 (Dense)                 (None, 128)          32896       concatenate_2[0][0]              
__________________________________________________________________________________________________
batch_normalization_9 (BatchNor (None, 128)          512         dense_4[0][0]                    
__________________________________________________________________________________________________
activation_9 (Activation)       (None, 128)          0           batch_normalization_9[0][0]      
__________________________________________________________________________________________________
dense_5 (Dense)                 (None, 1)            129         activation_9[0][0]               
__________________________________________________________________________________________________
lambda_1 (Lambda)               (None, 1)            0           dense_5[0][0]                    
==================================================================================================
Total params: 1,493,129
Trainable params: 1,490,057
Non-trainable params: 3,072
__________________________________________________________________________________________________
Parsing ./CNN_data_split/CNN_data_2/training_dataset/training_act.csv , ./CNN_data_split/CNN_data_2/training_dataset/training_compound.csv, ./CNN_data_split/CNN_data_2/training_dataset/training_protein.csv with length 2500, type Convolution
…
